Fold 0
Using device: cuda
Loading data
Number of tasks = 1
Splitting data with seed 0
Class sizes
p_np 0: 48.93%, 1: 51.07%
Total size = 1,778 | train size = 1,244 | val size = 178 | test size = 356
Building model 0
MoleculeModel(
  (sigmoid): Sigmoid()
  (encoder): MPN(
    (encoder): MPNEncoder(
      (dropout_layer): Dropout(p=0.02711916815111226, inplace=False)
      (act_func): ReLU()
      (W_i_atom): Linear(in_features=133, out_features=600, bias=False)
      (W_i_bond): Linear(in_features=147, out_features=600, bias=False)
      (W_h_atom): Linear(in_features=747, out_features=600, bias=False)
      (W_h_0): Linear(in_features=600, out_features=600, bias=False)
      (W_h_1): Linear(in_features=600, out_features=600, bias=False)
      (W_h_2): Linear(in_features=600, out_features=600, bias=False)
      (W_o): Linear(in_features=1200, out_features=600, bias=True)
      (gru): BatchGRU(
        (gru): GRU(600, 600, batch_first=True, bidirectional=True)
      )
      (lr): Linear(in_features=1800, out_features=600, bias=False)
    )
  )
  (ffn): Sequential(
    (0): Dropout(p=0.02711916815111226, inplace=False)
    (1): Linear(in_features=600, out_features=600, bias=True)
    (2): ReLU()
    (3): Dropout(p=0.02711916815111226, inplace=False)
    (4): Linear(in_features=600, out_features=1, bias=True)
  )
)
Number of parameters = 8,185,801
Moving model to cuda
Epoch 0
Validation auc = 0.661354
Epoch 1
Validation auc = 0.687160
Epoch 2
Validation auc = 0.685895
Epoch 3
Validation auc = 0.730044
Epoch 4
Validation auc = 0.750538
Epoch 5
Validation auc = 0.742441
Epoch 6
Validation auc = 0.754586
Epoch 7
Validation auc = 0.754333
Epoch 8
Validation auc = 0.711195
…
